{"format": "layers-model", "generatedBy": "keras v2.11.0", "convertedBy": "TensorFlow.js Converter v4.6.0", "modelTopology": {"keras_version": "2.11.0", "backend": "tensorflow", "model_config": {"class_name": "Functional", "config": {"name": "model_4", "layers": [{"class_name": "InputLayer", "config": {"batch_input_shape": [null, 60, 126], "dtype": "float32", "sparse": false, "ragged": false, "name": "input_31"}, "name": "input_31", "inbound_nodes": []}, {"class_name": "Dense", "config": {"name": "dense_69", "trainable": true, "dtype": "float32", "units": 128, "activation": "relu", "use_bias": true, "kernel_initializer": {"class_name": "GlorotUniform", "config": {"seed": null}}, "bias_initializer": {"class_name": "Zeros", "config": {}}, "kernel_regularizer": null, "bias_regularizer": null, "activity_regularizer": null, "kernel_constraint": null, "bias_constraint": null}, "name": "dense_69", "inbound_nodes": [[["input_31", 0, 0, {}]]]}, {"class_name": "TFOpLambda", "config": {"name": "tf.__operators__.add_49", "trainable": true, "dtype": "float32", "function": "__operators__.add"}, "name": "tf.__operators__.add_49", "inbound_nodes": [["dense_69", 0, 0, {"y": [[[… "name": null}]]}, {"class_name": "MultiHeadAttention", "config": {"name": "multi_head_attention_16", "trainable": true, "dtype": "float32", "num_heads": 8, "key_dim": 128, "value_dim": 128, "dropout": 0.0, "use_bias": true, "output_shape": null, "attention_axes": [1], "kernel_initializer": {"class_name": "GlorotUniform", "config": {"seed": null}}, "bias_initializer": {"class_name": "Zeros", "config": {}}, "kernel_regularizer": null, "bias_regularizer": null, "activity_regularizer": null, "kernel_constraint": null, "bias_constraint": null, "query_shape": [null, 60, 128], "key_shape": [null, 60, 128], "value_shape": [null, 60, 128]}, "name": "multi_head_attention_16", "inbound_nodes": [[["tf.__operators__.add_49", 0, 0, {"value": ["tf.__operators__.add_49", 0, 0]}]]]}, {"class_name": "Dropout", "config": {"name": "dropout_48", "trainable": true, "dtype": "float32", "rate": 0.1, "noise_shape": null, "seed": null}, "name": "dropout_48", "inbound_nodes": [[["multi_head_attention_16", 0, 0, {}]]]}, {"class_name": "SlicingOpLambda", "config": {"name": "tf.__operators__.getitem_47", "trainable": true, "dtype": "float32", "function": "__operators__.getitem"}, "name": "tf.__operators__.getitem_47", "inbound_nodes": [["tf.__operators__.add_49", 0, 0, {"slice_spec": [{"start": null, "stop": null, "step": null}, {"start": null, "stop": 60, "step": null}, {"start": null, "stop": null, "step": null}]}]]}, {"class_name": "TFOpLambda", "config": {"name": "tf.__operators__.add_50", "trainable": true, "dtype": "float32", "function": "__operators__.add"}, "name": "tf.__operators__.add_50", "inbound_nodes": [["dropout_48", 0, 0, {"y": ["tf.__operators__.getitem_47", 0, 0], "name": null}]]}, {"class_name": "LayerNormalization", "config": {"name": "layer_normalization_32", "trainable": true, "dtype": "float32", "axis": [2], "epsilon": 1e-06, "center": true, "scale": true, "beta_initializer": {"class_name": "Zeros", "config": {}}, "gamma_initializer": {"class_name": "Ones", "config": {}}, "beta_regularizer": null, "gamma_regularizer": null, "beta_constraint": null, "gamma_constraint": null}, "name": "layer_normalization_32", "inbound_nodes": [[["tf.__operators__.add_50", 0, 0, {}]]]}, {"class_name": "TimeDistributed", "config": {"name": "time_distributed_52", "trainable": true, "dtype": "float32", "layer": {"class_name": "Dense", "config": {"name": "dense_70", "trainable": true, "dtype": "float32", "units": 512, "activation": "relu", "use_bias": true, "kernel_initializer": {"class_name": "GlorotUniform", "config": {"seed": null}}, "bias_initializer": {"class_name": "Zeros", "config": {}}, "kernel_regularizer": null, "bias_regularizer": null, "activity_regularizer": null, "kernel_constraint": null, "bias_constraint": null}}}, "name": "time_distributed_52", "inbound_nodes": [[["layer_normalization_32", 0, 0, {}]]]}, {"class_name": "TimeDistributed", "config": {"name": "time_distributed_53", "trainable": true, "dtype": "float32", "layer": {"class_name": "Dropout", "config": {"name": "dropout_49", "trainable": true, "dtype": "float32", "rate": 0.1, "noise_shape": null, "seed": null}}}, "name": "time_distributed_53", "inbound_nodes": [[["time_distributed_52", 0, 0, {}]]]}, {"class_name": "TimeDistributed", "config": {"name": "time_distributed_54", "trainable": true, "dtype": "float32", "layer": {"class_name": "Dense", "config": {"name": "dense_71", "trainable": true, "dtype": "float32", "units": 128, "activation": "linear", "use_bias": true, "kernel_initializer": {"class_name": "GlorotUniform", "config": {"seed": null}}, "bias_initializer": {"class_name": "Zeros", "config": {}}, "kernel_regularizer": null, "bias_regularizer": null, "activity_regularizer": null, "kernel_constraint": null, "bias_constraint": null}}}, "name": "time_distributed_54", "inbound_nodes": [[["time_distributed_53", 0, 0, {}]]]}, {"class_name": "Dropout", "config": {"name": "dropout_50", "trainable": true, "dtype": "float32", "rate": 0.1, "noise_shape": null, "seed": null}, "name": "dropout_50", "inbound_nodes": [[["time_distributed_54", 0, 0, {}]]]}, {"class_name": "SlicingOpLambda", "config": {"name": "tf.__operators__.getitem_48", "trainable": true, "dtype": "float32", "function": "__operators__.getitem"}, "name": "tf.__operators__.getitem_48", "inbound_nodes": [["layer_normalization_32", 0, 0, {"slice_spec": [{"start": null, "stop": null, "step": null}, {"start": null, "stop": 60, "step": null}, {"start": null, "stop": null, "step": null}]}]]}, {"class_name": "TFOpLambda", "config": {"name": "tf.__operators__.add_51", "trainable": true, "dtype": "float32", "function": "__operators__.add"}, "name": "tf.__operators__.add_51", "inbound_nodes": [["dropout_50", 0, 0, {"y": ["tf.__operators__.getitem_48", 0, 0], "name": null}]]}, {"class_name": "LayerNormalization", "config": {"name": "layer_normalization_33", "trainable": true, "dtype": "float32", "axis": [2], "epsilon": 1e-06, "center": true, "scale": true, "beta_initializer": {"class_name": "Zeros", "config": {}}, "gamma_initializer": {"class_name": "Ones", "config": {}}, "beta_regularizer": null, "gamma_regularizer": null, "beta_constraint": null, "gamma_constraint": null}, "name": "layer_normalization_33", "inbound_nodes": [[["tf.__operators__.add_51", 0, 0, {}]]]}, {"class_name": "MultiHeadAttention", "config": {"name": "multi_head_attention_17", "trainable": true, "dtype": "float32", "num_heads": 8, "key_dim": 128, "value_dim": 128, "dropout": 0.0, "use_bias": true, "output_shape": null, "attention_axes": [1], "kernel_initializer": {"class_name": "GlorotUniform", "config": {"seed": null}}, "bias_initializer": {"class_name": "Zeros", "config": {}}, "kernel_regularizer": null, "bias_regularizer": null, "activity_regularizer": null, "kernel_constraint": null, "bias_constraint": null, "query_shape": [null, 60, 128], "key_shape": [null, 60, 128], "value_shape": [null, 60, 128]}, "name": "multi_head_attention_17", "inbound_nodes": [[["layer_normalization_33", 0, 0, {"value": ["layer_normalization_33", 0, 0]}]]]}, {"class_name": "Dropout", "config": {"name": "dropout_51", "trainable": true, "dtype": "float32", "rate": 0.1, "noise_shape": null, "seed": null}, "name": "dropout_51", "inbound_nodes": [[["multi_head_attention_17", 0, 0, {}]]]}, {"class_name": "SlicingOpLambda", "config": {"name": "tf.__operators__.getitem_49", "trainable": true, "dtype": "float32", "function": "__operators__.getitem"}, "name": "tf.__operators__.getitem_49", "inbound_nodes": [["layer_normalization_33", 0, 0, {"slice_spec": [{"start": null, "stop": null, "step": null}, {"start": null, "stop": 60, "step": null}, {"start": null, "stop": null, "step": null}]}]]}, {"class_name": "TFOpLambda", "config": {"name": "tf.__operators__.add_52", "trainable": true, "dtype": "float32", "function": "__operators__.add"}, "name": "tf.__operators__.add_52", "inbound_nodes": [["dropout_51", 0, 0, {"y": ["tf.__operators__.getitem_49", 0, 0], "name": null}]]}, {"class_name": "LayerNormalization", "config": {"name": "layer_normalization_34", "trainable": true, "dtype": "float32", "axis": [2], "epsilon": 1e-06, "center": true, "scale": true, "beta_initializer": {"class_name": "Zeros", "config": {}}, "gamma_initializer": {"class_name": "Ones", "config": {}}, "beta_regularizer": null, "gamma_regularizer": null, "beta_constraint": null, "gamma_constraint": null}, "name": "layer_normalization_34", "inbound_nodes": [[["tf.__operators__.add_52", 0, 0, {}]]]}, {"class_name": "TimeDistributed", "config": {"name": "time_distributed_55", "trainable": true, "dtype": "float32", "layer": {"class_name": "Dense", "config": {"name": "dense_72", "trainable": true, "dtype": "float32", "units": 512, "activation": "relu", "use_bias": true, "kernel_initializer": {"class_name": "GlorotUniform", "config": {"seed": null}}, "bias_initializer": {"class_name": "Zeros", "config": {}}, "kernel_regularizer": null, "bias_regularizer": null, "activity_regularizer": null, "kernel_constraint": null, "bias_constraint": null}}}, "name": "time_distributed_55", "inbound_nodes": [[["layer_normalization_34", 0, 0, {}]]]}, {"class_name": "TimeDistributed", "config": {"name": "time_distributed_56", "trainable": true, "dtype": "float32", "layer": {"class_name": "Dropout", "config": {"name": "dropout_52", "trainable": true, "dtype": "float32", "rate": 0.1, "noise_shape": null, "seed": null}}}, "name": "time_distributed_56", "inbound_nodes": [[["time_distributed_55", 0, 0, {}]]]}, {"class_name": "TimeDistributed", "config": {"name": "time_distributed_57", "trainable": true, "dtype": "float32", "layer": {"class_name": "Dense", "config": {"name": "dense_73", "trainable": true, "dtype": "float32", "units": 128, "activation": "linear", "use_bias": true, "kernel_initializer": {"class_name": "GlorotUniform", "config": {"seed": null}}, "bias_initializer": {"class_name": "Zeros", "config": {}}, "kernel_regularizer": null, "bias_regularizer": null, "activity_regularizer": null, "kernel_constraint": null, "bias_constraint": null}}}, "name": "time_distributed_57", "inbound_nodes": [[["time_distributed_56", 0, 0, {}]]]}, {"class_name": "Dropout", "config": {"name": "dropout_53", "trainable": true, "dtype": "float32", "rate": 0.1, "noise_shape": null, "seed": null}, "name": "dropout_53", "inbound_nodes": [[["time_distributed_57", 0, 0, {}]]]}, {"class_name": "SlicingOpLambda", "config": {"name": "tf.__operators__.getitem_50", "trainable": true, "dtype": "float32", "function": "__operators__.getitem"}, "name": "tf.__operators__.getitem_50", "inbound_nodes": [["layer_normalization_34", 0, 0, {"slice_spec": [{"start": null, "stop": null, "step": null}, {"start": null, "stop": 60, "step": null}, {"start": null, "stop": null, "step": null}]}]]}, {"class_name": "TFOpLambda", "config": {"name": "tf.__operators__.add_53", "trainable": true, "dtype": "float32", "function": "__operators__.add"}, "name": "tf.__operators__.add_53", "inbound_nodes": [["dropout_53", 0, 0, {"y": ["tf.__operators__.getitem_50", 0, 0], "name": null}]]}, {"class_name": "LayerNormalization", "config": {"name": "layer_normalization_35", "trainable": true, "dtype": "float32", "axis": [2], "epsilon": 1e-06, "center": true, "scale": true, "beta_initializer": {"class_name": "Zeros", "config": {}}, "gamma_initializer": {"class_name": "Ones", "config": {}}, "beta_regularizer": null, "gamma_regularizer": null, "beta_constraint": null, "gamma_constraint": null}, "name": "layer_normalization_35", "inbound_nodes": [[["tf.__operators__.add_53", 0, 0, {}]]]}, {"class_name": "MultiHeadAttention", "config": {"name": "multi_head_attention_18", "trainable": true, "dtype": "float32", "num_heads": 8, "key_dim": 128, "value_dim": 128, "dropout": 0.0, "use_bias": true, "output_shape": null, "attention_axes": [1], "kernel_initializer": {"class_name": "GlorotUniform", "config": {"seed": null}}, "bias_initializer": {"class_name": "Zeros", "config": {}}, "kernel_regularizer": null, "bias_regularizer": null, "activity_regularizer": null, "kernel_constraint": null, "bias_constraint": null, "query_shape": [null, 60, 128], "key_shape": [null, 60, 128], "value_shape": [null, 60, 128]}, "name": "multi_head_attention_18", "inbound_nodes": [[["layer_normalization_35", 0, 0, {"value": ["layer_normalization_35", 0, 0]}]]]}, {"class_name": "Dropout", "config": {"name": "dropout_54", "trainable": true, "dtype": "float32", "rate": 0.1, "noise_shape": null, "seed": null}, "name": "dropout_54", "inbound_nodes": [[["multi_head_attention_18", 0, 0, {}]]]}, {"class_name": "SlicingOpLambda", "config": {"name": "tf.__operators__.getitem_51", "trainable": true, "dtype": "float32", "function": "__operators__.getitem"}, "name": "tf.__operators__.getitem_51", "inbound_nodes": [["layer_normalization_35", 0, 0, {"slice_spec": [{"start": null, "stop": null, "step": null}, {"start": null, "stop": 60, "step": null}, {"start": null, "stop": null, "step": null}]}]]}, {"class_name": "TFOpLambda", "config": {"name": "tf.__operators__.add_54", "trainable": true, "dtype": "float32", "function": "__operators__.add"}, "name": "tf.__operators__.add_54", "inbound_nodes": [["dropout_54", 0, 0, {"y": ["tf.__operators__.getitem_51", 0, 0], "name": null}]]}, {"class_name": "LayerNormalization", "config": {"name": "layer_normalization_36", "trainable": true, "dtype": "float32", "axis": [2], "epsilon": 1e-06, "center": true, "scale": true, "beta_initializer": {"class_name": "Zeros", "config": {}}, "gamma_initializer": {"class_name": "Ones", "config": {}}, "beta_regularizer": null, "gamma_regularizer": null, "beta_constraint": null, "gamma_constraint": null}, "name": "layer_normalization_36", "inbound_nodes": [[["tf.__operators__.add_54", 0, 0, {}]]]}, {"class_name": "TimeDistributed", "config": {"name": "time_distributed_58", "trainable": true, "dtype": "float32", "layer": {"class_name": "Dense", "config": {"name": "dense_74", "trainable": true, "dtype": "float32", "units": 512, "activation": "relu", "use_bias": true, "kernel_initializer": {"class_name": "GlorotUniform", "config": {"seed": null}}, "bias_initializer": {"class_name": "Zeros", "config": {}}, "kernel_regularizer": null, "bias_regularizer": null, "activity_regularizer": null, "kernel_constraint": null, "bias_constraint": null}}}, "name": "time_distributed_58", "inbound_nodes": [[["layer_normalization_36", 0, 0, {}]]]}, {"class_name": "TimeDistributed", "config": {"name": "time_distributed_59", "trainable": true, "dtype": "float32", "layer": {"class_name": "Dropout", "config": {"name": "dropout_55", "trainable": true, "dtype": "float32", "rate": 0.1, "noise_shape": null, "seed": null}}}, "name": "time_distributed_59", "inbound_nodes": [[["time_distributed_58", 0, 0, {}]]]}, {"class_name": "TimeDistributed", "config": {"name": "time_distributed_60", "trainable": true, "dtype": "float32", "layer": {"class_name": "Dense", "config": {"name": "dense_75", "trainable": true, "dtype": "float32", "units": 128, "activation": "linear", "use_bias": true, "kernel_initializer": {"class_name": "GlorotUniform", "config": {"seed": null}}, "bias_initializer": {"class_name": "Zeros", "config": {}}, "kernel_regularizer": null, "bias_regularizer": null, "activity_regularizer": null, "kernel_constraint": null, "bias_constraint": null}}}, "name": "time_distributed_60", "inbound_nodes": [[["time_distributed_59", 0, 0, {}]]]}, {"class_name": "Dropout", "config": {"name": "dropout_56", "trainable": true, "dtype": "float32", "rate": 0.1, "noise_shape": null, "seed": null}, "name": "dropout_56", "inbound_nodes": [[["time_distributed_60", 0, 0, {}]]]}, {"class_name": "SlicingOpLambda", "config": {"name": "tf.__operators__.getitem_52", "trainable": true, "dtype": "float32", "function": "__operators__.getitem"}, "name": "tf.__operators__.getitem_52", "inbound_nodes": [["layer_normalization_36", 0, 0, {"slice_spec": [{"start": null, "stop": null, "step": null}, {"start": null, "stop": 60, "step": null}, {"start": null, "stop": null, "step": null}]}]]}, {"class_name": "TFOpLambda", "config": {"name": "tf.__operators__.add_55", "trainable": true, "dtype": "float32", "function": "__operators__.add"}, "name": "tf.__operators__.add_55", "inbound_nodes": [["dropout_56", 0, 0, {"y": ["tf.__operators__.getitem_52", 0, 0], "name": null}]]}, {"class_name": "LayerNormalization", "config": {"name": "layer_normalization_37", "trainable": true, "dtype": "float32", "axis": [2], "epsilon": 1e-06, "center": true, "scale": true, "beta_initializer": {"class_name": "Zeros", "config": {}}, "gamma_initializer": {"class_name": "Ones", "config": {}}, "beta_regularizer": null, "gamma_regularizer": null, "beta_constraint": null, "gamma_constraint": null}, "name": "layer_normalization_37", "inbound_nodes": [[["tf.__operators__.add_55", 0, 0, {}]]]}, {"class_name": "MultiHeadAttention", "config": {"name": "multi_head_attention_19", "trainable": true, "dtype": "float32", "num_heads": 8, "key_dim": 128, "value_dim": 128, "dropout": 0.0, "use_bias": true, "output_shape": null, "attention_axes": [1], "kernel_initializer": {"class_name": "GlorotUniform", "config": {"seed": null}}, "bias_initializer": {"class_name": "Zeros", "config": {}}, "kernel_regularizer": null, "bias_regularizer": null, "activity_regularizer": null, "kernel_constraint": null, "bias_constraint": null, "query_shape": [null, 60, 128], "key_shape": [null, 60, 128], "value_shape": [null, 60, 128]}, "name": "multi_head_attention_19", "inbound_nodes": [[["layer_normalization_37", 0, 0, {"value": ["layer_normalization_37", 0, 0]}]]]}, {"class_name": "Dropout", "config": {"name": "dropout_57", "trainable": true, "dtype": "float32", "rate": 0.1, "noise_shape": null, "seed": null}, "name": "dropout_57", "inbound_nodes": [[["multi_head_attention_19", 0, 0, {}]]]}, {"class_name": "SlicingOpLambda", "config": {"name": "tf.__operators__.getitem_53", "trainable": true, "dtype": "float32", "function": "__operators__.getitem"}, "name": "tf.__operators__.getitem_53", "inbound_nodes": [["layer_normalization_37", 0, 0, {"slice_spec": [{"start": null, "stop": null, "step": null}, {"start": null, "stop": 60, "step": null}, {"start": null, "stop": null, "step": null}]}]]}, {"class_name": "TFOpLambda", "config": {"name": "tf.__operators__.add_56", "trainable": true, "dtype": "float32", "function": "__operators__.add"}, "name": "tf.__operators__.add_56", "inbound_nodes": [["dropout_57", 0, 0, {"y": ["tf.__operators__.getitem_53", 0, 0], "name": null}]]}, {"class_name": "LayerNormalization", "config": {"name": "layer_normalization_38", "trainable": true, "dtype": "float32", "axis": [2], "epsilon": 1e-06, "center": true, "scale": true, "beta_initializer": {"class_name": "Zeros", "config": {}}, "gamma_initializer": {"class_name": "Ones", "config": {}}, "beta_regularizer": null, "gamma_regularizer": null, "beta_constraint": null, "gamma_constraint": null}, "name": "layer_normalization_38", "inbound_nodes": [[["tf.__operators__.add_56", 0, 0, {}]]]}, {"class_name": "TimeDistributed", "config": {"name": "time_distributed_61", "trainable": true, "dtype": "float32", "layer": {"class_name": "Dense", "config": {"name": "dense_76", "trainable": true, "dtype": "float32", "units": 512, "activation": "relu", "use_bias": true, "kernel_initializer": {"class_name": "GlorotUniform", "config": {"seed": null}}, "bias_initializer": {"class_name": "Zeros", "config": {}}, "kernel_regularizer": null, "bias_regularizer": null, "activity_regularizer": null, "kernel_constraint": null, "bias_constraint": null}}}, "name": "time_distributed_61", "inbound_nodes": [[["layer_normalization_38", 0, 0, {}]]]}, {"class_name": "TimeDistributed", "config": {"name": "time_distributed_62", "trainable": true, "dtype": "float32", "layer": {"class_name": "Dropout", "config": {"name": "dropout_58", "trainable": true, "dtype": "float32", "rate": 0.1, "noise_shape": null, "seed": null}}}, "name": "time_distributed_62", "inbound_nodes": [[["time_distributed_61", 0, 0, {}]]]}, {"class_name": "TimeDistributed", "config": {"name": "time_distributed_63", "trainable": true, "dtype": "float32", "layer": {"class_name": "Dense", "config": {"name": "dense_77", "trainable": true, "dtype": "float32", "units": 128, "activation": "linear", "use_bias": true, "kernel_initializer": {"class_name": "GlorotUniform", "config": {"seed": null}}, "bias_initializer": {"class_name": "Zeros", "config": {}}, "kernel_regularizer": null, "bias_regularizer": null, "activity_regularizer": null, "kernel_constraint": null, "bias_constraint": null}}}, "name": "time_distributed_63", "inbound_nodes": [[["time_distributed_62", 0, 0, {}]]]}, {"class_name": "Dropout", "config": {"name": "dropout_59", "trainable": true, "dtype": "float32", "rate": 0.1, "noise_shape": null, "seed": null}, "name": "dropout_59", "inbound_nodes": [[["time_distributed_63", 0, 0, {}]]]}, {"class_name": "SlicingOpLambda", "config": {"name": "tf.__operators__.getitem_54", "trainable": true, "dtype": "float32", "function": "__operators__.getitem"}, "name": "tf.__operators__.getitem_54", "inbound_nodes": [["layer_normalization_38", 0, 0, {"slice_spec": [{"start": null, "stop": null, "step": null}, {"start": null, "stop": 60, "step": null}, {"start": null, "stop": null, "step": null}]}]]}, {"class_name": "TFOpLambda", "config": {"name": "tf.__operators__.add_57", "trainable": true, "dtype": "float32", "function": "__operators__.add"}, "name": "tf.__operators__.add_57", "inbound_nodes": [["dropout_59", 0, 0, {"y": ["tf.__operators__.getitem_54", 0, 0], "name": null}]]}, {"class_name": "LayerNormalization", "config": {"name": "layer_normalization_39", "trainable": true, "dtype": "float32", "axis": [2], "epsilon": 1e-06, "center": true, "scale": true, "beta_initializer": {"class_name": "Zeros", "config": {}}, "gamma_initializer": {"class_name": "Ones", "config": {}}, "beta_regularizer": null, "gamma_regularizer": null, "beta_constraint": null, "gamma_constraint": null}, "name": "layer_normalization_39", "inbound_nodes": [[["tf.__operators__.add_57", 0, 0, {}]]]}, {"class_name": "TimeDistributed", "config": {"name": "time_distributed_64", "trainable": true, "dtype": "float32", "layer": {"class_name": "Dense", "config": {"name": "dense_78", "trainable": true, "dtype": "float32", "units": 60, "activation": "softmax", "use_bias": true, "kernel_initializer": {"class_name": "GlorotUniform", "config": {"seed": null}}, "bias_initializer": {"class_name": "Zeros", "config": {}}, "kernel_regularizer": null, "bias_regularizer": null, "activity_regularizer": null, "kernel_constraint": null, "bias_constraint": null}}}, "name": "time_distributed_64", "inbound_nodes": [[["layer_normalization_39", 0, 0, {}]]]}, {"class_name": "SlicingOpLambda", "config": {"name": "tf.__operators__.getitem_55", "trainable": true, "dtype": "float32", "function": "__operators__.getitem"}, "name": "tf.__operators__.getitem_55", "inbound_nodes": [["time_distributed_64", 0, 0, {"slice_spec": [{"start": null, "stop": null, "step": null}, -1, {"start": null, "stop": null, "step": null}]}]]}, {"class_name": "Dense", "config": {"name": "dense_79", "trainable": true, "dtype": "float32", "units": 60, "activation": "softmax", "use_bias": true, "kernel_initializer": {"class_name": "GlorotUniform", "config": {"seed": null}}, "bias_initializer": {"class_name": "Zeros", "config": {}}, "kernel_regularizer": null, "bias_regularizer": null, "activity_regularizer": null, "kernel_constraint": null, "bias_constraint": null}, "name": "dense_79", "inbound_nodes": [[["tf.__operators__.getitem_55", 0, 0, {}]]]}], "input_layers": [["input_31", 0, 0]], "output_layers": [["dense_79", 0, 0]]}}, "training_config": {"loss": "categorical_crossentropy", "metrics": [[{"class_name": "MeanMetricWrapper", "config": {"name": "accuracy", "dtype": "float32", "fn": "categorical_accuracy"}}]], "weighted_metrics": null, "loss_weights": null, "optimizer_config": {"class_name": "Custom>Adam", "config": {"name": "Adam", "weight_decay": null, "clipnorm": null, "global_clipnorm": null, "clipvalue": null, "use_ema": false, "ema_momentum": 0.99, "ema_overwrite_frequency": null, "jit_compile": false, "is_legacy_optimizer": false, "learning_rate": 0.0010000000474974513, "beta_1": 0.9, "beta_2": 0.999, "epsilon": 1e-07, "amsgrad": false}}}}, "weightsManifest": [{"paths": ["group1-shard1of3.bin", "group1-shard2of3.bin", "group1-shard3of3.bin"], "weights": [{"name": "dense_69/kernel", "shape": [126, 128], "dtype": "float32"}, {"name": "dense_69/bias", "shape": [128], "dtype": "float32"}, {"name": "dense_79/kernel", "shape": [60, 60], "dtype": "float32"}, {"name": "dense_79/bias", "shape": [60], "dtype": "float32"}, {"name": "layer_normalization_32/gamma", "shape": [128], "dtype": "float32"}, {"name": "layer_normalization_32/beta", "shape": [128], "dtype": "float32"}, {"name": "layer_normalization_33/gamma", "shape": [128], "dtype": "float32"}, {"name": "layer_normalization_33/beta", "shape": [128], "dtype": "float32"}, {"name": "layer_normalization_34/gamma", "shape": [128], "dtype": "float32"}, {"name": "layer_normalization_34/beta", "shape": [128], "dtype": "float32"}, {"name": "layer_normalization_35/gamma", "shape": [128], "dtype": "float32"}, {"name": "layer_normalization_35/beta", "shape": [128], "dtype": "float32"}, {"name": "layer_normalization_36/gamma", "shape": [128], "dtype": "float32"}, {"name": "layer_normalization_36/beta", "shape": [128], "dtype": "float32"}, {"name": "layer_normalization_37/gamma", "shape": [128], "dtype": "float32"}, {"name": "layer_normalization_37/beta", "shape": [128], "dtype": "float32"}, {"name": "layer_normalization_38/gamma", "shape": [128], "dtype": "float32"}, {"name": "layer_normalization_38/beta", "shape": [128], "dtype": "float32"}, {"name": "layer_normalization_39/gamma", "shape": [128], "dtype": "float32"}, {"name": "layer_normalization_39/beta", "shape": [128], "dtype": "float32"}, {"name": "multi_head_attention_16/query/kernel", "shape": [128, 8, 128], "dtype": "float32"}, {"name": "multi_head_attention_16/query/bias", "shape": [8, 128], "dtype": "float32"}, {"name": "multi_head_attention_16/key/kernel", "shape": [128, 8, 128], "dtype": "float32"}, {"name": "multi_head_attention_16/key/bias", "shape": [8, 128], "dtype": "float32"}, {"name": "multi_head_attention_16/value/kernel", "shape": [128, 8, 128], "dtype": "float32"}, {"name": "multi_head_attention_16/value/bias", "shape": [8, 128], "dtype": "float32"}, {"name": "multi_head_attention_16/attention_output/kernel", "shape": [8, 128, 128], "dtype": "float32"}, {"name": "multi_head_attention_16/attention_output/bias", "shape": [128], "dtype": "float32"}, {"name": "multi_head_attention_17/query/kernel", "shape": [128, 8, 128], "dtype": "float32"}, {"name": "multi_head_attention_17/query/bias", "shape": [8, 128], "dtype": "float32"}, {"name": "multi_head_attention_17/key/kernel", "shape": [128, 8, 128], "dtype": "float32"}, {"name": "multi_head_attention_17/key/bias", "shape": [8, 128], "dtype": "float32"}, {"name": "multi_head_attention_17/value/kernel", "shape": [128, 8, 128], "dtype": "float32"}, {"name": "multi_head_attention_17/value/bias", "shape": [8, 128], "dtype": "float32"}, {"name": "multi_head_attention_17/attention_output/kernel", "shape": [8, 128, 128], "dtype": "float32"}, {"name": "multi_head_attention_17/attention_output/bias", "shape": [128], "dtype": "float32"}, {"name": "multi_head_attention_18/query/kernel", "shape": [128, 8, 128], "dtype": "float32"}, {"name": "multi_head_attention_18/query/bias", "shape": [8, 128], "dtype": "float32"}, {"name": "multi_head_attention_18/key/kernel", "shape": [128, 8, 128], "dtype": "float32"}, {"name": "multi_head_attention_18/key/bias", "shape": [8, 128], "dtype": "float32"}, {"name": "multi_head_attention_18/value/kernel", "shape": [128, 8, 128], "dtype": "float32"}, {"name": "multi_head_attention_18/value/bias", "shape": [8, 128], "dtype": "float32"}, {"name": "multi_head_attention_18/attention_output/kernel", "shape": [8, 128, 128], "dtype": "float32"}, {"name": "multi_head_attention_18/attention_output/bias", "shape": [128], "dtype": "float32"}, {"name": "multi_head_attention_19/query/kernel", "shape": [128, 8, 128], "dtype": "float32"}, {"name": "multi_head_attention_19/query/bias", "shape": [8, 128], "dtype": "float32"}, {"name": "multi_head_attention_19/key/kernel", "shape": [128, 8, 128], "dtype": "float32"}, {"name": "multi_head_attention_19/key/bias", "shape": [8, 128], "dtype": "float32"}, {"name": "multi_head_attention_19/value/kernel", "shape": [128, 8, 128], "dtype": "float32"}, {"name": "multi_head_attention_19/value/bias", "shape": [8, 128], "dtype": "float32"}, {"name": "multi_head_attention_19/attention_output/kernel", "shape": [8, 128, 128], "dtype": "float32"}, {"name": "multi_head_attention_19/attention_output/bias", "shape": [128], "dtype": "float32"}, {"name": "time_distributed_52/kernel", "shape": [128, 512], "dtype": "float32"}, {"name": "time_distributed_52/bias", "shape": [512], "dtype": "float32"}, {"name": "time_distributed_54/kernel", "shape": [512, 128], "dtype": "float32"}, {"name": "time_distributed_54/bias", "shape": [128], "dtype": "float32"}, {"name": "time_distributed_55/kernel", "shape": [128, 512], "dtype": "float32"}, {"name": "time_distributed_55/bias", "shape": [512], "dtype": "float32"}, {"name": "time_distributed_57/kernel", "shape": [512, 128], "dtype": "float32"}, {"name": "time_distributed_57/bias", "shape": [128], "dtype": "float32"}, {"name": "time_distributed_58/kernel", "shape": [128, 512], "dtype": "float32"}, {"name": "time_distributed_58/bias", "shape": [512], "dtype": "float32"}, {"name": "time_distributed_60/kernel", "shape": [512, 128], "dtype": "float32"}, {"name": "time_distributed_60/bias", "shape": [128], "dtype": "float32"}, {"name": "time_distributed_61/kernel", "shape": [128, 512], "dtype": "float32"}, {"name": "time_distributed_61/bias", "shape": [512], "dtype": "float32"}, {"name": "time_distributed_63/kernel", "shape": [512, 128], "dtype": "float32"}, {"name": "time_distributed_63/bias", "shape": [128], "dtype": "float32"}, {"name": "time_distributed_64/kernel", "shape": [128, 60], "dtype": "float32"}, {"name": "time_distributed_64/bias", "shape": [60], "dtype": "float32"}]}]}